aod_net.pth (torch, 11832 bytes, 10 tensors)

conv1.weight f4 [3, 3, 5, 5]
000000 90 cd 7f 3d 4a 8d 6b 3c 61 22 d2 bb 15 02 9e 3c
       0.0624519 0.014376948 -0.0064127897 0.019288102
000010 76 39 42 3d bf 52 52 3d 33 3f cc bd 9d 3d 30 bc
       0.04741808 0.051348444 -0.09972992 -0.010756877
000020 bf 95 76 3c fa bc 76 3d a3 91 a5 3d e2 56 9b bd
       0.015050351 0.060238816 0.080844186 -0.07584931
000030 ae be c1 3d 6b 29 b1 3d 42 3f 49 3d 3b 1b 44 3d
       0.094601974 0.08650478 0.049132593 0.04787753
000040 c7 c8 50 b9 ea 6b 93 bd 80 e9 68 bb 1f 1a ad 3d
       -0.00019911221 -0.07198317 -0.0035539567 0.08452248
000050 06 da 9f 3d 55 80 10 bc 42 d1 85 3d f5 01 de bc
       0.078052565 -0.008819659 0.065340534 -0.027100543
000060 23 ad 0a bd d7 d2 cb bb b2 d7 99 3d db 88 a1 bc
       -0.033856522 -0.0062202024 0.07511844 -0.019718578
000070 22 e7 b7 3d f6 f9 fa bc 15 6e c9 bd dc dc 84 bb
       0.08979632 -0.030636769 -0.098354496 -0.004054649
000080 53 fe 65 bd d8 0b f7 3c fd 7d e7 3d 76 13 e7 3d
       -0.056150746 0.030157015 0.11303327 0.11283009
000090 8c ca 7f 3d 1a 62 12 3d 9b ae c2 3d 79 61 b5 3d
       0.062449023 0.03573809 0.095059596 0.08856482
0000a0 a0 7d 89 3d d8 d6 0c bd 47 16 ca 3d 4d 1b 77 3d
       0.06713414 -0.03438458 0.0986753 0.06032877
0000b0 84 80 6b 3d 3f 1f ce 3d 6d 03 a3 bc 6e 08 a5 3d
       0.05749561 0.100645535 -0.019899094 0.080582485
0000c0 d6 84 98 3d cd 90 a9 bc ac 53 9b 3c b2 57 83 bc
       0.074472114 -0.02069893 0.018960796 -0.016033027
0000d0 08 91 10 3d e0 04 f0 bc 43 80 19 bd 23 0e bb 3d
       0.035294563 -0.0292992 -0.037475836 0.09133556
0000e0 43 96 3b 3d bf be 5f bd 5b 89 80 3d 82 17 90 3d
       0.045797598 -0.05462527 0.062761985 0.07035734
0000f0 ac 73 16 3c 02 96 39 3d ee b4 23 bb 1e a3 84 bd
       0.009182852 0.045309074 -0.0024979669 -0.06476425
000100 5a 0c 66 3d 68 56 63 bc 48 85 a5 3d b6 37 62 3d
       0.056164123 -0.013875581 0.08082062 0.05522891
000110 89 88 7c 3d 76 a3 6b 3d 82 40 ec 3d 7e c3 7e bd
       0.061653648 0.057528935 0.115357414 -0.062198155
000120 42 17 73 3d 4c 07 c7 3d 8b a0 d0 bd 7b fd cc 3d
       0.059348352 0.09718189 -0.10186871 0.10009285
000130 fc 65 bf 3c 8e 4b cc 3d a0 0b af 3d 39 34 89 bd
       0.02336406 0.099753484 0.08547139 -0.06699414
000140 cc 3c cc 3d 85 52 9a 3c 47 c4 b4 bd da 98 2a bd
       0.099725336 0.018838177 -0.088264994 -0.041649677
000150 bf 4b 48 bc 02 97 ab 3d d5 89 fd bc 31 26 34 3d
       -0.0122250905 0.08378412 -0.030949512 0.043981735
000160 a4 10 df 3d 47 06 87 bd 61 0b 23 3d af 45 03 bd
       0.10891846 -0.06592994 0.039805774 -0.032048877
000170 56 cf c4 3d 8f 40 ce bd 36 22 c7 bd cd 81 e6 bd
       0.09609859 -0.10070907 -0.09723322 -0.11255226
000180 a8 2e 18 bd d4 0f d3 bd fc 02 3e bd 2e db 9f bd
       -0.03715387 -0.10305753 -0.046389565 -0.07805477
000190 93 54 de 39 3e 04 0c bd b3 2b 7b 3d 68 c3 51 3d
       0.00042406152 -0.034183733 0.06132097 0.051211745
0001a0 ce a1 01 bd f6 7e db bd cb 20 70 3d ca 72 34 bd
       -0.03164845 -0.10717575 0.058625024 -0.044054784
0001b0 30 67 87 3c d9 52 6b bd 93 dd 8b bd 47 65 9c 3b
       0.016528696 -0.057452057 -0.06829371 0.0047728154
0001c0 43 eb 89 bd 2d fc a3 3d 34 28 ca 3c 77 70 20 bc
       -0.06734326 0.08007083 0.024677373 -0.009792439
0001d0 3c f8 d6 bd 39 0a 81 3d cd 58 b0 3d 1f a6 a4 bc
       -0.10496566 0.06300778 0.086106874 -0.020098744
0001e0 cf 31 aa bd 30 0e 70 bd 7a 46 f6 3c 4e 9c bd bd
       -0.083102815 -0.05860728 0.030062903 -0.092583284
0001f0 e4 d6 6a bd 99 6c 57 3d b9 24 dd 3d f3 04 d2 bd
       -0.057333842 0.0525938 0.1079802 -0.1025485
000200 e8 0b a3 bd ff cb f3 3c c4 53 45 3d cb fb 26 3d
       -0.07961255 0.029760359 0.04817559 0.040767472
000210 37 10 28 3d 2b 49 05 bc 71 f7 b7 bc 9b 50 e8 3d
       0.04103109 -0.00813512 -0.022456856 0.11343499
000220 54 25 5f bd f4 4f dc bd 19 71 92 bd 0d a4 20 bd
       -0.05447896 -0.10757437 -0.07150478 -0.03921895
000230 ef ff e5 3d 8a f2 d9 bd 69 8b c2 bd 78 21 1b 3d
       0.11230456 -0.10641964 -0.094992466 0.037873715
000240 a2 2e 91 3c 39 c8 97 3c 80 9c bd bd a1 10 d6 bd
       0.017722432 0.01852809 -0.09258366 -0.104523905
000250 12 6f 33 bd 14 be 84 3d 26 2a c9 3d 3e 05 e5 3d
       -0.043807097 0.06481567 0.09822492 0.111826405
000260 d8 8f 8c bc cb 8e 96 bd 9f ef 19 3d c0 12 60 bb
       -0.017158434 -0.07351454 0.037582036 -0.0034190863
000270 a0 21 a1 bc 2b 9e da 3d c8 84 b7 bd 98 05 b3 3d
       -0.019669354 0.106746994 -0.08960873 0.08741301
000280 83 4d ab bd b9 18 3e 3d e3 ff 6d bc 64 42 e7 bc
       -0.083643936 0.046410296 -0.01452634 -0.0282299
000290 46 58 c6 bd 80 00 92 3d e2 82 d0 3d 00 e2 a8 3d
       -0.096848056 0.071290016 0.10181214 0.08246231
0002a0 d1 53 e6 3d 91 30 da 3d f9 e7 a4 bd 15 b1 8d 3d
       0.112464555 0.106537946 -0.08052058 0.06918541
0002b0 d4 22 75 bd 8a c7 89 bd 12 31 0d bd 60 16 83 bd
       -0.059847668 -0.06727512 -0.034470625 -0.06400752
0002c0 62 36 21 3c dd bc 1c bd 0f 33 80 3d a6 0d 5e bd
       0.009839626 -0.03826605 0.06259739 -0.054212235
0002d0 e9 64 be bd aa 24 cb bd 98 2f e9 3c 0a ec bc 3d
       -0.09296591 -0.099191025 0.028465077 0.092247084
0002e0 f0 c6 ce 3b 12 a4 24 bd 10 49 c8 bd 43 56 46 bb
       0.0063103363 -0.040195532 -0.097795606 -0.0030263818
0002f0 49 d4 d6 3d 1f 5c bc 3c 7d 77 00 3c 4c 94 78 3c
       0.10489709 0.022993146 0.007840988 0.0151720755
000300 e9 9b 97 3d c1 e4 7b bd 7e 23 d2 bd 57 cb d3 3d
       0.074027844 -0.061497454 -0.10260676 0.10341518
000310 b8 c8 41 3d b1 fb 1c 3d f1 4e 50 3d ec 1a 42 bc
       0.04731056 0.03832597 0.050856534 -0.011847239
000320 b1 1d 33 bd 29 46 de bd 01 e8 8d 3d 28 a6 c9 bc
       -0.043729488 -0.10853226 0.06929017 -0.024615362
000330 00 3d 64 bd d7 1e 7b bd 66 84 99 3d f8 bd c1 bb
       -0.055722237 -0.061308708 0.07495956 -0.0059125386
000340 3e ac c1 3d cf 38 7a bd 32 8e bf bd 85 16 c7 bb
       0.09456681 -0.061089333 -0.093532935 -0.0060756826
000350 47 8e 50 bd 12 9b a2 3b d7 81 ca 3c a4 d2 c7 3d
       -0.050916936 0.0049623335 0.024720116 0.097569734
000360 5a a0 95 3d f8 d6 9d bd 0d 71 d9 bd 4d bb 68 3d
       0.07305975 -0.07707018 -0.10617266 0.05681925
000370 95 f4 dd bd 23 de 33 bd e3 47 13 bd 49 aa c9 3d
       -0.10837666 -0.043913018 -0.03595723 0.098469324
000380 5d fd 95 bd
       -0.07323716

conv1.bias f4 [3]
000000 e1 6a 87 3b 07 77 b1 bc f8 3a b4 bd
       0.004132614 -0.021663202 -0.0880031

conv2.weight f4 [3, 3, 5, 5]
000000 2c cc a2 bd 09 83 a7 3b 94 a6 87 bc d3 c9 e6 3d
       -0.07949099 0.005112056 -0.016558923 0.11268964
000010 ff 01 96 bd 89 05 a0 bd 9b b5 ef bc 21 5f ce bb
       -0.073245995 -0.07813556 -0.0292614 -0.0062979613
000020 f6 a6 da bd 9c fc a0 3d 42 77 36 3d f6 ee 0d 3d
       -0.106763765 0.078606814 0.044547327 0.03465172
000030 43 67 14 bc b2 03 a9 3c b2 92 fc bc 6f 55 c5 bd
       -0.009057823 0.020631645 -0.030831669 -0.09635436
000040 de 12 79 3d 4d bb e2 3d 92 13 0c bd 2c 18 95 bd
       0.06080901 0.11070881 -0.03419835 -0.07280001
000050 e4 8b bb bd 67 11 90 3d ed d1 a2 bd d8 a2 56 bd
       -0.091575414 0.07034569 -0.079501964 -0.052401394
000060 44 e9 fe 3c b2 7f 8b 3d fa c7 11 bd 63 c9 9d 3b
       0.03111709 0.06811465 -0.035591103 0.004815267
000070 97 e9 9c bd d7 f7 ca bd 27 76 dc bd a2 09 c1 3c
       -0.07661741 -0.09910553 -0.10764723 0.023564164
000080 b2 6c 98 3d 9e 89 2d bd 9a e3 94 bd ef 27 dd bd
       0.07442607 -0.04236757 -0.07269974 -0.10798632
000090 00 3d ee bc 91 1b 8a 3d 0c 29 48 3d 20 6e 08 bd
       -0.029081821 0.06743539 0.04886727 -0.03330815
0000a0 2c 6e e8 bd ec 54 b5 bb 98 e2 af bc f4 3a c8 3d
       -0.113491386 -0.005533805 -0.021470353 0.097768694
0000b0 0e 88 bf bd 5b be 0a 3d 29 87 d5 bd c9 c8 ff bc
       -0.09352122 0.033872943 -0.104261704 -0.031223672
0000c0 1c 1c ca 3d 27 ef 2a bd a4 aa 77 bc 34 5c 89 3d
       0.09868643 -0.04173198 -0.0151163675 0.067070395
0000d0 d4 b3 cd 3c 4b 5b 4c 3d f9 12 27 bd ae 1c 90 bc
       0.025110163 0.04989175 -0.040789578 -0.0175918
0000e0 7f ca 8d bd 88 34 af bd 56 56 9f 3d 50 e2 ca 3d
       -0.06923389 -0.085549414 0.07780139 0.09906447
0000f0 6f 77 d9 3d b5 ca be bd 78 82 d1 bd 9f c5 ca bc
       0.10618483 -0.09316007 -0.10229963 -0.024752436
000100 b5 14 3b 3d e2 14 85 bd a2 54 f2 bb 35 ef e1 bc
       0.045674045 -0.06498124 -0.007395343 -0.027579883
000110 2e ef 11 3b 02 f2 e2 bd f2 f5 a6 3d 3b b8 7f 3d
       0.0022267806 -0.110813156 0.08152379 0.062431555
000120 27 92 8f bd c4 92 0a bc ab 6a 9f 3c e9 9f ac 3d
       -0.07010298 -0.008457843 0.019460043 0.08428938
000130 ed 04 bc 3d 91 ca 10 bd 72 9f 8b 3d 5d 97 6c bd
       0.09180627 -0.035349432 0.06817521 -0.05776154
000140 23 4a bc bd f0 3b c4 bd f3 9f 21 bd 50 f8 1c 3d
       -0.09193828 -0.09581745 -0.03945918 0.038322747
000150 ea 24 de 3d 74 38 cc 3c ca d1 cf 3c 43 05 d9 3a
       0.108468845 0.024929263 0.02536859 0.0016557354
000160 c5 bd e2 3d 12 bf 67 3d 98 f7 87 bd e4 c0 1b bd
       0.11071352 0.056578703 -0.06639022 -0.03802575
000170 1c e4 e1 3d f5 2b 2c 3c f8 b8 e0 3c 03 4f 10 3d
       0.110298365 0.010508527 0.02743195 0.0352316
000180 47 20 92 bd 54 0b 17 3d d0 60 a3 bd 34 79 6e 3d
       -0.07135063 0.036876038 -0.0797745 0.058221057
000190 ee 8d 55 3d 1e 20 c2 bc aa 35 db 3c be 95 b9 3d
       0.052137308 -0.023696955 0.026758987 0.09061764
0001a0 c4 9f 8e 3d af 08 67 ba c2 2d 6a bd e9 ca 16 3d
       0.069640666 -0.00088132446 -0.057172544 0.036814604
0001b0 bb 0e cf bc 14 32 9b 3d 2c 2c c6 3d db fb 6f 3d
       -0.025275579 0.07577911 0.09676394 0.058589797
0001c0 6f 18 d7 3d 04 e4 72 bd 1a 12 33 bd 50 00 97 bc
       0.10502707 -0.059299484 -0.043718435 -0.018432766
0001d0 1a 9e 62 3d ad 8b b3 bd ce 0d 19 3d 74 86 b2 3d
       0.05532656 -0.087668754 0.03736668 0.08717051
0001e0 5a a8 35 3c 93 7e 6e bd a1 3c 8c bd a0 9a 71 bd
       0.011087501 -0.05822618 -0.068475015 -0.058985353
0001f0 70 4f ec bd 6d 7a 82 3c 5c 1e b9 3d 04 67 c4 bd
       -0.11538589 0.015927518 0.09038994 -0.09589961
000200 b6 a7 64 bd 57 58 5a bc f2 13 d2 bd fd e1 8e bd
       -0.055824004 -0.013326726 -0.102577105 -0.069766976
000210 fd 6f 3f 3d 6a e9 c1 3c ba 8d 83 bd e8 7f 83 bb
       0.04673766 0.02367087 -0.064235166 -0.0040130503
000220 a8 c0 90 bd aa 1d 5b 3d e6 57 99 bd 51 c9 e2 3d
       -0.07067996 0.053495087 -0.074874684 0.11073554
000230 de 47 42 bd db 4d ef 3c 0b ea 70 3d 2d f1 1a 3c
       -0.04743182 0.029211929 0.05881695 0.009456915
000240 53 83 d5 bd 76 d5 16 3d 34 9a 81 3d 57 ff e3 3c
       -0.10425439 0.036824666 0.0632824 0.027831716
000250 82 e1 d3 bc 3c d1 a8 bd 83 b1 5a bd 40 b0 af bd
       -0.025864366 -0.08243033 -0.053391945 -0.08578539
000260 ff a7 10 3c 9a 09 c6 3d c6 ff 4a bd 0f 96 14 3d
       0.008829116 0.096698 -0.04956033 0.03627592
000270 fb ba b4 3d 0c 1b 20 bd 9e 89 55 bd 95 ea b4 bd
       0.08824726 -0.039088294 -0.052133195 -0.088338055
000280 88 93 50 3d 9c f1 51 3d 45 8e 2b bd 8e 50 3e bd
       0.050921947 0.051255807 -0.041883726 -0.04646354
000290 9c 9c bf bd d2 00 e6 bd 15 c4 6b 3c cc a4 63 3d
       -0.09356043 -0.11230625 0.014390011 0.055577084
0002a0 bc fd 1a bd 48 cf c3 3d c9 62 e8 bd ee 9c 46 bc
       -0.037839636 0.0956102 -0.11346967 -0.012122376
0002b0 a6 9b 81 3d da ec 86 bd ee 57 6a 3d ea ef e6 3c
       0.06328516 -0.065881446 0.057212763 0.028190572
0002c0 ac f5 b0 bc 43 62 b4 bc d5 56 cb bd bd d9 72 bd
       -0.02160152 -0.022019511 -0.09928671 -0.059289683
0002d0 d8 b7 a6 bd 32 e2 78 bd ef 55 ec bd 1d 8f 7e 3d
       -0.08140534 -0.06076259 -0.11539828 0.062148202
0002e0 38 4e 6e bd 2f 66 3b 3d 3b 13 83 bd 3e 16 f5 bc
       -0.058180064 0.045751747 -0.06400152 -0.029917832
0002f0 9a 05 8b 3c ee 11 28 3d e4 a6 e3 3c 57 d3 8b 3c
       0.016970444 0.041032724 0.02778954 0.017068548
000300 92 b6 aa 3d f7 c1 80 bb 69 91 8d bd 33 2d 8e 3b
       0.08335604 -0.0039293724 -0.069125004 0.0043388843
000310 cb 8b 64 3d 3b 56 c1 bd bd 8a 24 3d ef c2 d5 3d
       0.05579738 -0.09440275 0.040171374 0.10437571
000320 f7 59 b4 bd 1e bf a7 3d 5e 7e 87 bd b7 bf 64 bd
       -0.08806222 0.081907496 -0.066158995 -0.055846896
000330 d6 78 bc bd 3f f9 8f 3d f2 47 82 3d ef d5 e1 bd
       -0.09202735 0.07029962 0.06361379 -0.11027133
000340 cc 22 b0 3c c4 15 c2 bd 76 73 82 bd 54 e0 52 3c
       0.021500967 -0.09476808 -0.06369679 0.012870867
000350 99 b3 be bd 59 72 69 3d d5 da a2 bd cd 23 ed bc
       -0.09311599 0.056993816 -0.07951895 -0.028947735
000360 e9 90 30 bd f2 80 8b bd 5d 8d dc bc 3a 56 56 bd
       -0.043106947 -0.06811704 -0.026922876 -0.052328326
000370 88 85 c6 bd f5 58 24 3c 3e 03 c2 bd 90 18 61 bd
       -0.09693438 0.010030975 -0.09473275 -0.054955065
000380 ba 35 87 3d
       0.066020444

conv2.bias f4 [3]
000000 d0 b1 5a bd f6 0c ca 3d c7 36 a2 3d
       -0.05339223 0.09865753 0.07920604

conv3.weight f4 [3, 6, 5, 5]
000000 e1 ee a5 bd 46 25 24 bd 23 36 c4 bb 01 0f 99 3d
       -0.08102203 -0.04007461 -0.005987899 0.07473565
000010 76 76 4a 3d 04 40 40 3d 24 c0 89 3d 97 c2 89 bc
       0.04942938 0.04693605 0.06726101 -0.01681642
000020 5e 07 1a 3d 4e 27 8a 3c 51 7a db 3b b7 fa 05 3d
       0.037604682 0.016864445 0.006697931 0.032709803
000030 87 4f 82 3d b1 b4 b5 3c 6f 4f 9e 3d b0 e3 ff bc
       0.06362825 0.022180887 0.077299945 -0.0312365
000040 e7 c0 41 bd 3a b6 56 bc 26 f8 e9 3b f8 e7 cc 3c
       -0.047303107 -0.01310497 0.0071401773 0.025012955
000050 3d a8 6e 3c 28 fd 44 3c e3 9c 08 3d ed d2 a3 bd
       0.014566478 0.012023248 0.033352744 -0.07999215
000060 b8 64 75 bc b4 ec 74 bd 66 fc 89 3c 62 b1 11 bd
       -0.0149776265 -0.05979605 0.016843986 -0.035569556
000070 d8 83 a1 3d 7a f6 76 3c a2 3d 5c 3d 9c aa 25 bd
       0.07886475 0.015073413 0.053769715 -0.04044591
000080 44 2f 9f bd 10 04 7d bd ad 8a f9 3c a8 0f 59 3c
       -0.07772687 -0.061771452 0.030461634 0.013248362
000090 89 4a 85 bb 47 94 a6 bd cf 9f 35 bd 15 42 8d 3c
       -0.004067723 -0.081337504 -0.04434186 0.017243424
0000a0 b4 ad 71 3c f3 2f cc bc f2 a3 bb bc fa c8 fb bc
       0.014750887 -0.024925208 -0.022905324 -0.030735482
0000b0 76 07 0e bd 64 de 1a bd ef 50 b0 3c 27 f1 84 bc
       -0.034675084 -0.037809744 0.021522967 -0.016228272
0000c0 0c ab a6 3d bd 85 99 3d c3 cc a2 bc 91 15 01 bd
       0.08138093 0.07496212 -0.019873029 -0.031514708
0000d0 be 16 44 bd 66 6f 47 3d ba 7f 22 bd 59 52 52 3d
       -0.04787325 0.048690222 -0.03967259 0.051348064
0000e0 f2 b3 39 bc 7d cf 22 3d aa be 24 bd aa b6 0f bd
       -0.011334406 0.039748657 -0.040220894 -0.03508631
0000f0 ac e1 55 bd 55 97 5b bd b6 5d 2b 3b 4f be 9d bd
       -0.05221717 -0.05361112 0.0026148385 -0.07702314
000100 11 36 06 bd 3a 74 3d 3d 4e b3 a4 3d b4 fd f3 3c
       -0.032766405 0.04625342 0.08042012 0.029784061
000110 59 fa 3e bd 88 53 9d 3d ae 35 87 3d 70 f1 55 bd
       -0.04662547 0.07681948 0.066020355 -0.052232206
000120 1e 82 66 3d 66 94 a2 3d 0c 15 93 bc ab 75 90 3d
       0.056276433 0.07938461 -0.017954372 0.070536934
000130 33 56 5c 3b cf b8 96 bd 2a d2 15 3d 23 9d d1 3a
       0.0033620715 -0.07359468 0.03657738 0.0015992265
000140 d1 98 1f 3d 25 5a 87 bd b0 34 29 3d 20 8f 8a 3c
       0.038964096 -0.066089906 0.041310012 0.01691395
000150 a3 76 ad ba 42 b3 8c bb 9e 80 50 3d 90 aa 26 3d
       -0.0013234209 -0.00429383 0.05090391 0.040690005
000160 1a ad c1 3b fc 33 19 3d d5 1e 12 3d 23 e4 d8 3b
       0.005910528 0.03740309 0.035673935 0.006618993
000170 14 48 f5 3c f0 44 69 bd f6 87 98 bd c3 34 1d bd
       0.029941596 -0.05695051 -0.074478075 -0.038380396
000180 03 02 d0 bc 86 67 84 bd 6f f0 53 bd 6d 55 80 3d
       -0.025391584 -0.06465058 -0.051742967 0.06266294
000190 0c 1f 04 bb 52 c5 84 bd 9e d5 63 bb 1e 5a 87 bd
       -0.0020160107 -0.06482948 -0.0034764777 -0.06608985
0001a0 ec 05 25 bd 6c 78 9a bc fc 53 34 bc 94 ae 8e bd
       -0.04028885 -0.01885625 -0.011006352 -0.06966892
0001b0 3d ba d7 bc 34 c0 8c 3d 5a 40 e2 3c e2 14 62 3d
       -0.026333923 0.06872597 0.027618576 0.055195697
0001c0 b0 d0 0a bd 0b e0 e9 3c 76 bb 9d 3d 9f 6f c1 bc
       -0.033890426 0.028549215 0.07701771 -0.023612795
0001d0 ab 7b 9b bd f0 40 7a 3b 6a 8c 72 bd 4c c3 81 bd
       -0.07591947 0.0038185678 -0.05921594 -0.06336078
0001e0 42 3f cc bc a2 32 be ba f7 48 62 3c b9 21 f8 bb
       -0.024932507 -0.0014510939 0.0138113415 -0.0075723794
0001f0 19 db 78 3d f0 ca 69 bd 73 3c 77 3c 23 44 2d bc
       0.060755823 -0.057078302 0.015090096 -0.010575327
000200 ce 9b 88 3d 9c ff 6c 3d dc ab 08 39 ea 4f a5 bd
       0.066703424 0.057860956 0.00013033993 -0.08071883
000210 39 99 88 bd bc 71 64 bd 0c 18 13 3d 62 24 4b bd
       -0.0666985 -0.055772528 0.035911605 -0.049595244
000220 78 88 0f 3c 14 01 1d 3d 63 44 03 3a 6c 9b 12 bd
       0.008760564 0.038331106 0.0005007444 -0.035792753
000230 8a a1 a6 bd 80 ed ad bc eb 26 01 3d 14 e8 9a bc
       -0.0813628 -0.021231413 0.031531256 -0.018909492
000240 32 3b 3e bd 42 b9 52 3d 89 83 0d 3d e3 3c 03 3d
       -0.04644317 0.051446207 0.03454927 0.032040488
000250 a9 ce 94 bd e8 93 1a 3d aa 29 5f 3d 86 27 ed bc
       -0.0726598 0.03773871 0.054483093 -0.02894951
000260 2d 10 ef bc 1a 89 95 bd 0b 2b 07 bd 13 88 53 3d
       -0.029182518 -0.07301541 -0.033000033 0.051643442
000270 86 94 c9 bc 8d be a0 3d 21 39 5f bc a4 f9 3d 3d
       -0.024606954 0.07848845 -0.01362446 0.046380654
000280 cb 27 43 bd e6 7f 07 bd 28 8a f5 ba 8e 15 16 3b
       -0.04764537 -0.033080958 -0.001873319 0.0022901031
000290 6e ef 81 bd 04 13 d5 bc 44 7f 0b bd 70 ba 8c bd
       -0.06344496 -0.026010044 -0.034056917 -0.06871498
0002a0 90 ab 30 3d 9a a2 a6 3b 53 99 a0 bd df 42 6a bd
       0.043132365 0.0050853016 -0.07841744 -0.05719268
0002b0 dc 45 a5 3d 7d eb ef 3a 10 0e 15 3d 34 83 05 ba
       0.08069965 0.0018304434 0.036390364 -0.0005093098
0002c0 fa a9 75 3d bb 74 6c bc b5 e7 f2 3c dc 3d 17 bc
       0.059976555 -0.014432128 0.029651502 -0.009231057
0002d0 15 cc 46 3d fa d8 a1 3c 13 a1 c7 bc 27 67 80 bd
       0.04853447 0.019756783 -0.024368798 -0.06269675
0002e0 8a 59 73 bd b9 57 dd 3b 98 89 89 3d ce 72 52 bd
       -0.059411563 0.006754842 0.06715697 -0.051379018
0002f0 62 f7 2f 3d c6 ed 23 3d 7f 39 91 3d f4 f9 56 bd
       0.042960532 0.04002168 0.07091045 -0.052484468
000300 cb 82 9b 3d 10 0e 30 3d cb ff 14 3d 43 bc 86 3d
       0.07593306 0.04298216 0.036376756 0.06578877
000310 c7 a3 30 3d 9a c0 5d 3d 12 56 44 bd 0e 02 9c bc
       0.04312494 0.054138757 -0.047933646 -0.019043949
000320 2b 84 96 3d c3 98 60 3d 2a ab 95 bc 44 11 4b 3d
       0.07349428 0.054833185 -0.018270094 0.049577013
000330 1b 6f fd bc 90 19 7b 3d 78 30 16 3d 61 57 92 3d
       -0.030936768 0.061303675 0.036667317 0.071455725
000340 a2 ca 9c bd aa bd 97 bd f3 37 89 bc bb 61 0c bc
       -0.07655837 -0.074092224 -0.016750311 -0.008568223
000350 98 16 69 3c 18 2c 32 3d 06 22 9e 3c 12 6c 82 3d
       0.014226578 0.043499082 0.019303333 0.06368269
000360 f2 88 73 bd 7c 21 91 3d 3e 2a 92 3b 7b dd 21 bd
       -0.059456773 0.07086465 0.004460602 -0.03951786
000370 0a ed 8d 3c 9e a7 97 bc 7c 56 65 3d fc d0 62 bd
       0.017324943 -0.018512543 0.05599068 -0.055375084
000380 c5 66 32 3d 0c fc 52 bd d9 48 e9 3c 9e c3 8d 3d
       0.04355504 -0.051509902 0.02847712 0.06922077
000390 4b 6c 18 bd 59 6d 1e 3c 07 90 4a 39 95 7c 07 3d
       -0.03721265 0.009669625 0.00019317876 0.033077795
0003a0 68 8f fc 3c 02 dd 17 3d ee 2a 56 bc 66 2d a7 bd
       0.0308301 0.037076004 -0.013071759 -0.08162956
0003b0 80 6f 9c bd b2 a0 ef 3c 7f 66 64 3d 50 4c 13 3d
       -0.076384544 0.02925143 0.05576181 0.03596145
0003c0 f3 3d 73 3d f3 2a 67 3d 0a 68 6d 3d b8 ab 73 bd
       0.05938525 0.056437444 0.057960548 -0.059489936
0003d0 29 e2 95 bd f1 7c 38 bd 4a 49 e5 3c bc e3 a1 ba
       -0.07318527 -0.04504103 0.027989049 -0.0012351195
0003e0 0a 48 32 bd c0 97 71 bd 72 7c 3f bd 4d 34 85 bd
       -0.043525733 -0.05898261 -0.04674954 -0.06504116
0003f0 37 0c 73 bd 8d 1a 52 bb df 26 aa bc c7 b5 19 3d
       -0.05933782 -0.0032059283 -0.020770488 0.037526872

conv3.bias f4 [3]
000000 14 a0 2e 3d d8 66 a2 3d 74 10 70 3d
       0.04263313 0.07929772 0.05860944

conv4.weight f4 [3, 6, 5, 5]
000000 36 01 f7 3c 60 34 60 3d 86 b5 15 3d 63 ef 80 bc
       0.030151945 0.05473745 0.036550067 -0.015739148
000010 f0 55 78 3c 80 f8 58 3d db fb 46 3d a9 ca 40 bd
       0.015157208 0.052971363 0.04858003 -0.04706827
000020 92 3a 86 bd 4f a2 d0 ba 17 de 3f bd b9 ad 2e bd
       -0.0655414 -0.0015917512 -0.04684266 -0.042646144
000030 19 be 6d bd f0 1f 51 bd 9a 62 00 3d 07 6c 8c bd
       -0.05804262 -0.05105585 0.031344034 -0.06856542
000040 c2 7e 6d 3d f0 0f 64 3d a5 d6 9f 3c 7f d9 25 bb
       0.057982214 0.05567926 0.01951153 -0.002530664
000050 b1 9c 5b 3b 20 27 a3 3d 38 32 5f 3d ec 7b 50 bd
       0.0033510143 0.07966447 0.05449125 -0.05089943
000060 aa db 9b 3d 87 c9 72 3d 2c d4 c9 3c 7e 27 83 3d
       0.07610257 0.059274223 0.024637304 0.06404017
000070 fa 1c e7 ba e9 45 91 3d 68 20 4d 3d 43 2c 03 bd
       -0.0017632537 0.070934124 0.050079733 -0.032024633
000080 24 24 a6 bd 4d f1 9f bd 07 56 ea bc 80 e8 c4 bc
       -0.08112362 -0.07809696 -0.028605474 -0.024036646
000090 12 4a 9a bd 1e fb 29 3d 45 bc 15 3d b3 d5 32 bc
       -0.07533659 0.04149925 0.0365565 -0.010915208
0000a0 0d 75 10 3d 70 68 f7 bc d9 f3 78 3d ac 66 84 bc
       0.03526788 -0.030201167 0.060779426 -0.016162239
0000b0 27 ba 0e bd ba e6 56 3b 67 36 18 bc 36 8f 9c 3d
       -0.034845497 0.0032791332 -0.009290314 0.07644503
0000c0 fe 65 6f bd 61 2c 2d bd ca 52 86 3d 70 71 72 3d
       -0.058446877 -0.04227865 0.065587595 0.059190214
0000d0 81 15 12 3a 09 51 7c bd e4 27 a2 bd d9 4f a4 3d
       0.00055726623 -0.06160072 -0.07917765 0.08023042
0000e0 bb e2 85 bb 52 75 97 bc 5a 38 96 bd e8 56 2c 3c
       -0.0040858663 -0.01848856 -0.07334967 0.010518767
0000f0 90 d4 84 3d 48 a1 1c bd 64 5b 9a bd 36 bb 00 3d
       0.064858556 -0.038239747 -0.07536963 0.03142854
000100 a6 28 54 3d ed dd 37 3d 9c a4 d1 bc 31 82 a4 bd
       0.051796578 0.04488938 -0.025591187 -0.080326445
000110 58 62 58 3d 91 ea 34 3d 81 0b 48 bd b1 74 87 3c
       0.052828163 0.044169012 -0.048839096 0.016535135
000120 f2 f5 10 3d c1 ed 43 3d d3 f4 28 bd d5 06 38 bd
       0.0353908 0.04783416 -0.041249108 -0.04492839
000130 6f 7d 61 3d 07 99 89 bd 32 da 39 3c 3c 15 57 bd
       0.055051263 -0.06718641 0.011343526 -0.052510485
000140 e2 c2 22 bc 14 ea 6a 3c b2 9e 9c bd 6c 1e 72 3c
       -0.009934159 0.014338035 -0.07647456 0.014777761
000150 d8 7b 93 3d 0c 27 a3 3d 0e b0 42 3d d6 b0 a5 bd
       0.07201356 0.07966432 0.04753118 -0.080903694
000160 19 33 d3 3a 28 a3 74 3d f4 9a 37 3d bd 8b 0f 3b
       0.0016113251 0.05972591 0.04482551 0.002190336
000170 52 b6 a3 3c cd c1 9d 3b 14 56 9d bd b4 44 82 3d
       0.019984398 0.0048143626 -0.07682434 0.0636076
000180 80 ad cd 3b c0 c2 7e bd c5 40 88 bd 92 a7 9f bd
       0.0062767863 -0.062197447 -0.06652979 -0.077956334
000190 0a 67 6d bd 75 8c 77 bd ff 1b 8a 3d de 8c 63 3d
       -0.057959594 -0.060436685 0.06743621 0.055554263
0001a0 6d 70 96 bd 9e f5 4d bd 9a 8e 97 3d 25 32 17 3d
       -0.07345662 -0.050283067 0.07400246 0.036913056
0001b0 07 72 6c bd eb 59 4c ba f1 2c 71 bc 48 7b 2d 3d
       -0.057725932 -0.0007795381 -0.0147201875 0.0423539
0001c0 7c 3b 8f 3d 22 b3 37 3d dd 5b f2 3c f8 6b b9 bc
       0.069937676 0.04484857 0.02958482 -0.022634491
0001d0 10 47 6e bd 79 c5 a5 bc 51 47 0b bd 1a 32 09 bd
       -0.05817324 -0.020235764 -0.03400356 -0.033495046
0001e0 b3 90 46 bd 94 ae 28 bd 71 75 ef bc e8 28 89 3c
       -0.04847784 -0.041182116 -0.029230805 0.016743138
0001f0 52 39 84 bd 06 52 65 3d b9 13 68 bb 7f 01 60 bb
       -0.064562455 0.055986427 -0.0035412146 -0.003418058
000200 87 8d 77 bd 7c 30 2a 3d 3c 7f 82 3d bd 0e d1 3a
       -0.060437705 0.041550145 0.06371924 0.0015949827
000210 bf 83 44 3d c5 40 bf bc 84 2e 4e bd 89 c8 45 3d
       0.047977205 -0.023346314 -0.05033733 0.04828695
000220 22 03 82 bd 63 fa 8d 3c 93 d1 a1 3d a9 b6 ac 3c
       -0.06348254 0.017331308 0.07901301 0.021083193
000230 cb 71 5f ba 85 3d ee bb 88 d5 8d 3d 94 50 b6 3c
       -0.00085237314 -0.0072705173 0.069254935 0.02225522
000240 6e 4c 3d 3d 10 2e 5e bd 62 8a 30 3d 4e c0 3e 3d
       0.046215467 -0.054243147 0.043100722 0.046570115
000250 9c c4 77 bd 74 3a 7d 3d a9 27 73 bd 83 7e 38 3d
       -0.060490236 0.061823323 -0.059363995 0.045042526
000260 4d 5e 08 bd aa 16 ed bc d6 1f 3b 3d 80 35 42 3c
       -0.033293057 -0.028941471 0.045684658 0.011853576
000270 96 90 bc 3a 55 dd 7d bd 9d d7 99 bc c8 ee 26 3c
       0.0014386352 -0.061978657 -0.01877957 0.010188766
000280 51 cc 39 bd cd 97 da bc 27 26 50 bd 10 83 85 3d
       -0.045360867 -0.026683712 -0.050817635 0.06519139
000290 f7 24 98 bd a2 70 83 3d 4a 07 8a 3d f4 0f 8e bd
       -0.074289255 0.064179674 0.067396715 -0.069366366
0002a0 b0 b1 72 3d 0e 9d cc bc 47 af 83 3d 16 36 81 3d
       0.059251487 -0.024977233 0.06429916 0.06309144
0002b0 e2 2e 0b bd 65 ef 0c 3d 6d cb 60 bd ef 5b c5 bc
       -0.033980258 0.034407992 -0.054881502 -0.024091689
0002c0 d2 74 d9 3b f0 e3 85 3d 72 b0 96 bc b0 0a 9c bd
       0.0066362405 0.06537616 -0.018394683 -0.07619226
0002d0 ac 41 5b 3d 10 95 6f bc cf 99 25 3c 0c db 17 3d
       0.053529426 -0.014622942 0.010107472 0.037074134
0002e0 a0 0e 31 bd 6a 89 16 3d 5d 5c 77 bd 96 44 8e 3d
       -0.043226838 0.036752142 -0.06039082 0.069466755
0002f0 06 0e 3f 3d d1 88 59 bd 95 1b aa 3c ed 2a 28 3d
       0.046644233 -0.053108994 0.020765105 0.041056562
000300 ff 05 96 bd 3e c6 81 bd d7 29 8c 3d ac 03 bd 3c
       -0.073253624 -0.0633664 0.06843918 0.02307304
000310 31 0c f5 bc c9 e4 97 3d 38 92 8f 3d c3 cb 64 bd
       -0.02991304 0.07416684 0.07010311 -0.055858385
000320 24 5a 2c bd 6d 57 f3 3c b8 5a 7b bd ba 40 11 3b
       -0.042078152 0.029704774 -0.061365813 0.0022163824
000330 d6 24 31 3c 9e 71 37 3c a4 4a 9a bd c7 b8 68 bd
       0.010812005 0.011196522 -0.07533768 -0.056816842
000340 86 01 a5 bd 6f 47 ac 3c 2a ea e7 bb 34 08 77 3d
       -0.08056931 0.021030156 -0.007077475 0.060310557
000350 4e f6 91 bd a2 b2 82 bd be c9 4f bd 97 e0 a1 bc
       -0.07127057 -0.06381728 -0.050729506 -0.019760413
000360 ea 38 f5 3b e3 8b 35 bc ec c5 06 3d 0e ba 49 3d
       0.0074835913 -0.011080715 0.032903597 0.0492497
000370 27 95 2c bd f2 f8 22 3d ac 1e 99 3d 68 a5 49 3c
       -0.04213443 0.039788194 0.07476553 0.012307502
000380 4f 22 87 3d 1a 54 29 3d 7b 4c 89 3d 5c 37 d4 bc
       0.06598341 0.04133997 0.067040406 -0.025905304
000390 0e df 9e 3d e7 eb 4f 3b 6f 7a 0d bd d5 42 eb bb
       0.07757388 0.0031726302 -0.03454059 -0.007179598
0003a0 20 45 a7 bc 8f e7 b5 bc e9 8f e3 3c ee 5e ae 3c
       -0.020418704 -0.022205142 0.027778583 0.0212855
0003b0 66 1b 4d bd b1 ab 3f bc 69 3d 54 bd dd 97 76 bd
       -0.050074957 -0.011698649 -0.051816378 -0.06020342
0003c0 aa 55 82 bc 31 0f fa bc a3 74 6f 3d 7b b7 26 3d
       -0.015909988 -0.030524822 0.058460843 0.040702324
0003d0 23 b1 6e bc 0a 41 37 bd a5 12 77 bd 9e 30 69 3d
       -0.0145686 -0.04473976 -0.060320515 0.05693113
0003e0 63 d8 18 bd 64 98 a0 3d d9 4f 0b bd 27 7c ce bc
       -0.037315737 0.07841566 -0.034011696 -0.025205685
0003f0 a2 82 87 3d 2c cb a0 3d 8b 58 13 3d 8b 12 15 3d
       0.06616713 0.07851252 0.035973113 0.036394637

conv4.bias f4 [3]
000000 3f 58 db bc bf 7d 8a 3d d6 63 93 3d
       -0.026775477 0.067622654 0.071967766

conv5.weight f4 [3, 9, 5, 5]
000000 94 b5 25 bd f6 3b 09 3d 9a 27 1e 3c 12 b0 91 3b
       -0.04045637 0.03350445 0.009652996 0.004446038
000010 34 b3 3c 38 36 ee 53 bd a3 23 56 bc 70 ed 3e bc
       4.498959e-05 -0.051740848 -0.01307002 -0.011653289
000020 58 69 87 3d e9 17 86 bd 12 2c 10 3c 56 b9 09 bb
       0.066118896 -0.06547529 0.00879957 -0.002101501
000030 52 0b 4a bd 83 f0 08 bd 8e 48 7a bd 50 50 45 3d
       -0.049327202 -0.033432495 -0.06110435 0.048172295
000040 9e 90 20 3d dc 7e 80 bd ef 76 13 3d 67 8a 51 3c
       0.039200418 -0.062741965 0.036002096 0.012789345
000050 bc 3b 97 bb cb d3 1f 3d e7 69 fa 3c 01 0d eb bb
       -0.004615275 0.03902034 0.030568076 -0.007173181
000060 4c e4 7c 3d c5 5f 17 3d 67 d9 18 3d 56 80 6f bd
       0.06174116 0.036956567 0.037316706 -0.058472
000070 f0 c0 ac 3c d6 05 11 bc f3 fc 80 3d dc 08 20 bd
       0.021088094 -0.008851489 0.06298246 -0.03907095
000080 1e 76 9d 3c 45 ba 1a 3c 2f c0 18 3d ab b2 5f 3a
       0.019221362 0.009443824 0.037292656 0.00085333985
000090 5a 71 8b 3c 45 9e 0d 3c 01 83 b4 3c 9a 6e 71 bd
       0.017021824 0.008643691 0.022035124 -0.05894337
0000a0 30 21 c4 bc 23 ba 46 bb 38 2c b7 bc 23 14 70 3b
       -0.023941606 -0.0030323348 -0.022359952 0.0036633096
0000b0 23 35 b7 bc 56 ee f2 3c 52 ee 65 bd 05 98 03 3d
       -0.022364205 0.029654663 -0.056135483 0.0321274
0000c0 27 a7 67 bd d2 fe 63 3d f0 d5 80 3d a3 99 f8 bc
       -0.056555893 0.055662937 0.06290805 -0.030346697
0000d0 ac b6 ff 3a f0 1f 67 3d 81 29 d8 3c ab 95 50 3d
       0.0019509397 0.056426942 0.026386978 0.050923984
0000e0 c3 3a 2d 3d 89 88 e4 38 1a b4 14 bd 23 99 87 3d
       0.042292368 0.00010897319 -0.03630457 0.066210054
0000f0 f0 6d f4 3c 5e 32 31 bc ab 06 52 bb 8b d3 61 bd
       0.029837579 -0.010815231 -0.0032047431 -0.055133384
000100 ab f6 34 bd 41 2f 3f bd f0 6e 2d ba bd 6b f6 3b
       -0.044180553 -0.046675924 -0.0006615957 0.0075201676
000110 45 d6 64 bc 8b 72 0e 3d 56 81 6f bd f0 b6 49 3d
       -0.013967101 0.034777205 -0.058472954 0.04924673
000120 c5 84 af bc 56 88 39 bd c9 45 19 bd 6f e9 04 bd
       -0.021425614 -0.045296036 -0.037420068 -0.032449182
000130 09 36 57 bd 45 6c f1 3b b8 de 60 3d eb cd 29 3d
       -0.052541766 0.007367643 0.0548999 0.041456144
000140 a3 2e 40 bc 01 5a 31 bd 56 fd 11 3a c7 59 14 3d
       -0.011729869 -0.043298725 0.0005569061 0.03621843
000150 52 93 a2 bc 12 07 76 3c 5a e4 91 bc cd 13 a4 bc
       -0.019845638 0.015016334 -0.017809082 -0.020028973
000160 78 bf 38 3d be 69 29 bd 34 1b 22 bd b6 b1 2e 3d
       0.045104474 -0.04136061 -0.039576724 0.042649947
000170 45 67 1c bd d6 05 a5 bc f8 50 d5 bc 16 c7 9a bc
       -0.038184423 -0.020144384 -0.026039585 -0.01889376
000180 5e f3 89 bc d0 47 52 bd 34 52 c6 3c a3 5d ed 3c
       -0.01683968 -0.051338017 0.02420912 0.028975314
000190 eb d4 5a bd ce 61 f8 bb d2 c9 76 3d 4e a8 56 bd
       -0.05342571 -0.0075800186 0.060251065 -0.0524066
0001a0 5e 00 21 bd bc 73 17 bc 78 2e 16 bd 16 11 bb bc
       -0.03930699 -0.009243902 -0.03666541 -0.022835296
0001b0 89 27 3a bc d6 46 50 3d 25 1f 3a 3d 36 f4 02 3d
       -0.011361965 0.050848804 0.045439858 0.03197118
0001c0 b4 74 16 bd 23 3a f3 ba 21 f2 55 3d a9 38 7e 3d
       -0.03673239 -0.0018556755 0.052232865 0.062065754
0001d0 1f 3d 5f 3d 3c 52 5e 3d 9c 71 47 3d 05 4f bc bc
       0.05450165 0.054277644 0.04869233 -0.022986898
0001e0 5f 4d 69 3c 49 70 00 bd df 10 5f bc d4 4e 3f 3d
       0.014239638 -0.031357083 -0.013614862 0.046706036
0001f0 9a 7f d6 bb da be 67 3d 89 e3 12 bd b4 a6 be 3c
       -0.006545973 0.056578495 -0.035861526 0.02327285
000200 1f 2d e2 3c 43 79 24 3d c9 a9 1b 3d 09 91 22 3d
       0.027609406 0.040154707 0.038003717 0.039689098
000210 27 5d 55 bd 07 b0 0e bd 34 d5 05 bc b4 f2 6f 3c
       -0.05209079 -0.03483584 -0.008168507 0.014645267
000220 67 b1 ef 3b e9 83 82 bd 96 b0 58 3d f4 34 09 bd
       0.007314849 -0.06372816 0.05290278 -0.033497766
000230 a7 1f 51 bd e7 db 98 bc a9 38 33 3d b6 35 87 3d
       -0.051055577 -0.018659545 0.043755207 0.066020414
000240 69 42 4e bd d2 26 85 3d b2 10 0d bd 34 c8 56 3d
       -0.050356302 0.06501545 -0.03443975 0.052437022
000250 3e 62 2b bd c5 ed 71 bd 12 ce c0 3c b6 fb 0f 3d
       -0.041841738 -0.059064645 0.023535762 0.03515216
000260 d8 c0 65 3d 58 0f 86 3d 38 dc 55 bd ac e4 fe bb
       0.056092113 0.06545895 -0.05221197 -0.0077787247
000270 3e ba 1c bd 3f 27 65 bd e0 e5 00 bd 5a 01 16 3d
       -0.038263552 -0.05594563 -0.031469226 0.036622383
000280 93 e6 80 3d 0b 51 27 3d ab 71 c2 bc 6f 41 20 3d
       0.062939785 0.040848773 -0.023735842 0.039124902
000290 d0 e0 29 bd de 44 07 bc 18 3c 09 bd d8 20 64 bd
       -0.041474164 -0.008256165 -0.033504575 -0.055695385
0002a0 ad 9f 24 bd 7f bd 56 bd 9a 87 5e 3c c9 f1 82 bc
       -0.04019134 -0.05242681 0.013582135 -0.015984433
0002b0 7c 69 46 bd 23 40 e8 3b a7 f4 34 3d f8 98 87 3d
       -0.04844044 0.007087724 0.04417863 0.06620973
0002c0 38 53 15 bd 7c f0 c2 bc 6f 8a 10 3c 92 86 62 3c
       -0.036456317 -0.023796313 0.008822068 0.013826029
0002d0 45 c5 9e 3b bc 06 52 3c 09 81 3f bc 78 ab 8f 3b
       0.0048452937 0.012818988 -0.011688479 0.0043844543
0002e0 df 82 7e bc 23 eb bf bb bd 4a f3 bc b8 a9 87 3c
       -0.015534132 -0.005856888 -0.029698724 0.01656042
0002f0 36 83 77 3d b2 28 5a bd d8 3e 45 3d cb ab 51 bd
       0.060427867 -0.053261466 0.048155636 -0.051189225
000300 f0 5e b8 39 41 34 39 3d cc 67 85 3d c5 67 b0 3c
       0.0003516595 0.04521585 0.06513938 0.021533856
000310 78 1b 01 bc 70 a1 64 bc 90 22 7d 3d 5e 3d 19 bd
       -0.007880084 -0.013954505 0.06180054 -0.03741204
000320 bd d0 73 bc a3 6e 5f bc 3e b1 37 3d b8 51 c0 bc
       -0.01488131 -0.013637218 0.044846766 -0.023476467
000330 78 cf 9e 3a c7 b8 35 3d 87 57 19 bd 9a d5 99 ba
       0.0012116274 0.04436567 -0.03743699 -0.0011736632
000340 e9 03 87 3d 01 59 aa 3b fd 78 75 3d 09 2e 33 3c
       0.06592543 0.0051985984 0.059929837 0.010936269
000350 cb ad 0c 3d 0f d6 0f 3d 34 51 7d 3b bc 61 34 3d
       0.03434543 0.03511625 0.0038653137 0.04403852
000360 e7 ba 1b 3d 5a 65 5e 3d b0 18 47 bd f0 a2 3a 3d
       0.03802004 0.054295875 -0.04860753 0.045565546
000370 e3 f5 73 3d 00 00 8d 3a a1 29 14 bd e7 46 54 bd
       0.059560668 0.0010757446 -0.036172513 -0.05182543
000380 4d c1 c8 bc 5a 26 3d 3d 89 6f e6 bc de 4f 18 3d
       -0.024506235 0.046179153 -0.028129356 0.037185542
000390 bc 66 9b 3c 74 dd cc bc c7 ee 85 bd 69 c5 01 3d
       0.018969886 -0.02500794 -0.06539684 0.031682406
0003a0 34 ca 63 3d d6 af 74 3d 23 16 7f bc 70 20 db 3c
       0.055612758 0.059738003 -0.015569243 0.026748866
0003b0 56 14 33 bc f4 86 c5 bc b4 87 17 bc 21 1f 56 bd
       -0.010930141 -0.024112202 -0.009248663 -0.05227578
0003c0 9a a1 84 ba e3 00 aa 3c cd c1 02 3c a7 b0 db bc
       -0.0010118962 0.020752376 0.007980776 -0.026817633
0003d0 34 b0 cf 3c 74 54 50 bd c5 ff 6b bd 4f e5 14 3d
       0.025352575 -0.05086179 -0.057616968 0.0363515
0003e0 23 14 ef bc ae f5 59 bd 49 38 a4 3c 34 67 72 3c
       -0.029184407 -0.053212814 0.02004637 0.014795113
0003f0 df 5a ba 3c 23 24 d0 3b 10 b5 33 3d e7 b9 97 3c
       0.022748409 0.006351964 0.043873847 0.018521262

conv5.bias f4 [3]
000000 c0 74 86 bc bb 0f 86 3d 16 42 85 bd
       -0.016413093 0.06545969 -0.065067455
