aod_net_trained.pth (torch, 11944 bytes, 10 tensors)

conv1.weight f4 [3, 3, 5, 5]
00000000: b8dd 04bc f284 283e d457 45bc bd8d e13d
00000010: 2dff 8d3d 9729 d63d c932 e13d 508c c63d
00000020: 42b3 33bc dfea 033e 4400 cc3b ba5d 85bd
00000030: 995f e13d 5e81 cb3d 7335 d73d 63e4 f13d
00000040: e7e3 3b3d 5b7a ec3d 2324 673d 6413 a03d
00000050: 44f1 e43b 5c88 6d3d f83a 6a3d 9600 a5bd
00000060: c17d 793d 8258 96bd 6cb9 2d3b b629 af3d
00000070: e5b6 ec3c f8c1 003d 2c85 5abd 15a8 c23d
00000080: 0d0b 97bd 4e19 d23c 8984 113c 7e2d b1bc
00000090: 1eca 813d 79ac bcbd 2068 85bd 955b 9fbd
000000a0: 3983 b7bc 98f1 a73c 340a d0bd 8db3 c5bd
000000b0: 065f e3bc d220 2ebd c314 0bbd b64e 9cbc
000000c0: c019 07be d9fb 5cbd 380d 23bb ae80 7bbd
000000d0: daf6 c13d d84e 87bd 1d28 363c fc8f a3bd
000000e0: 9fe4 963d 6faf fcbd e275 ecbd 77b7 973d
000000f0: bd30 ebbd 697e 09be 25c6 4f3c a4dc fbbc
00000100: 5592 623d 0247 f5bd cfcc 113d 9101 4e3c
00000110: 1bff bd3c 2d35 063d 0636 62bd bbaf d9bc
00000120: 3ce3 5bbd 39d6 663d d87a 8ebc 83ce 86bd
00000130: 1927 2c3d 2dc5 5cbc 7877 d63c 3eac 433c
00000140: 30de c93d bf3d 9fbd a292 a03c b4fc bebd
00000150: e861 42bd 886d ebbd df9e c63d 7d70 8e3d
00000160: 31fe 943d 6a77 92bd f525 c7bd 4695 e6bd
00000170: b32f e4bd 91cc dabb 470d a8bd a502 0abd
00000180: 2fa5 00be b802 5c3d 00b9 c43d 4b8a a13c
00000190: 2357 a6bd 38bc af3d 96d7 dd3c 5e1c 3dbd
000001a0: 5a75 a23d a449 713d b4a0 ae3d 7d0e dbbb
000001b0: 14c7 543d 86b6 92bd 5b33 183c 4ddb cbbc
000001c0: ebd8 673d bbea bebd c91b 513d d46f cc3c
000001d0: f6ab 3ebd 3d06 323d 9642 8bbd 45d2 26bc
000001e0: 6ba9 03bd f7ed ab3d 5b3a 813c 2b3e fdbd
000001f0: d08b 9c3d 74cf d0bd 028b 233d 3c03 883a
00000200: b2ed a3bd 4e4b 6c3c 8cfa f2bc 480d 96bc
00000210: d291 3a3d 51bf 3abc 1393 a9bd 1c89 b4bd
00000220: f050 0f3c f0ef 73bd 4e80 e4bc c5db 99bb
00000230: 998c 9b3d 6af8 a4bd a967 a13d d0c9 68bd
00000240: a7b0 1c3d 6c7f 6bbd 5a98 03be 92b4 0bbe
00000250: d384 81bd 81de 833d 8312 743d 8fd4 b53d
00000260: d1ad 303d 8437 4b3d 0825 533e 1e91 853d
00000270: 1575 1e3d 4a1e b83d 823f 80bc 6735 063e
00000280: 8f3a 0f3e fc06 e13d c302 8dbd bdea 853c
00000290: 38f5 493e c91d 9cbd a4c0 0cbd 2b5d c5bd
000002a0: aee5 a2bd b98d 8f3d 7d2f 13bd be19 253d
000002b0: 148d 0d3c 2d7c 173e a02c 923c d83f af3d
000002c0: 4be1 85bd f5a5 b6bd 3979 c43c 1a26 d93d
000002d0: e422 89bd 9b0a 7b3d 6caa 033d 66fd 4cbd
000002e0: 67f0 96bb a72e 0c3d d7bb 86bc f832 61bd
000002f0: 9815 f0bc 57e5 b73c e683 673d fd6d 30be
00000300: 9ea6 0ebe fa7f d7bd f58d 00bb fc5f 03bc
00000310: f92d 633c 61c9 5ebd e03b 1d3d e8f8 edbc
00000320: d7eb ebbd 3869 acbd c40c 0a3d e2f8 bd3d
00000330: 174a b3bd 26c7 d03d e48a f33c 3063 f1bc
00000340: 5f33 aa3d d12f 8d3c d283 cb3b 58da 693d
00000350: c9b9 37be cdc3 50bd 6203 933d 457d 0cbb
00000360: 6788 2fbe f77a 5fbe c6ba 6abe a6df cf3b
00000370: a376 b3bd 71c6 e1bd 8bed 0bbe 1d40 833d
00000380: c4e5 e1bc
-0.0081095025 0.16456965 -0.012044866 0.110133626 0.069334365 0.104571514 0.109960146 0.09694731
-0.010968031 0.12882565 0.0062256176 -0.065120175 0.11004562 0.09936784 0.105082415 0.118111394
0.04587164 0.11546775 0.056430947 0.078161985 0.006986769 0.05799137 0.057185143 -0.080567524
0.060910944 -0.073411 0.0026508225 0.085528776 0.028895805 0.031434983 -0.05334966 0.09504715
-0.07375155 0.025646832 0.0088816965 -0.021628138 0.06337379 -0.09212584 -0.06514001 -0.0778114
-0.022401439 0.020500943 -0.10158196 -0.09653387 -0.027755272 -0.04251177 -0.033955347 -0.019080501
-0.13193417 -0.05395112 -0.0024879705 -0.061402015 0.09470911 -0.06606835 0.011117962 -0.07986447
0.07367825 -0.12338149 -0.11545922 0.0740804 -0.114839055 -0.13427128 0.012681519 -0.030744858
0.055315334 -0.11976434 0.03559571 0.012573616 0.023192933 0.032765556 -0.055227302 -0.026573053
-0.053683504 0.056356642 -0.01739256 -0.06582358 0.042029474 -0.013474745 0.026180014 0.011942921
0.09856832 -0.07775449 0.01960117 -0.09325543 -0.047456652 -0.11495501 0.09698271 0.06955049
0.07275046 -0.07151683 -0.097240366 -0.112589404 -0.111419104 -0.0066772182 -0.082056575 -0.03369393
-0.12563013 0.05371353 0.096055984 0.019719264 -0.08122089 0.08580822 0.027080338 -0.04616963
0.07932539 0.05890812 0.085267454 -0.0066850767 0.05194767 -0.0716372 0.009289588 -0.024884844
0.056603353 -0.09322115 0.05105189 0.024955668 -0.046550713 0.04346298 -0.0679981 -0.010181968
-0.03214399 0.083949976 0.015774896 -0.12365373 0.076438546 -0.101958185 0.03992749 0.001037694
-0.08004321 0.014422251 -0.029660486 -0.01831688 0.04554922 -0.011398152 -0.08280005 -0.08815214
0.008747324 -0.059554994 -0.027893212 -0.004695388 0.07595176 -0.08055194 0.078811 -0.05683309
0.038254406 -0.057494566 -0.12851086 -0.13643101 -0.06324162 0.064389236 0.059587967 0.08878433
0.043134514 0.04961349 0.20619595 0.065218195 0.038685877 0.08990152 -0.015655283 0.13106309
0.13987182 0.1098766 -0.068852924 0.016347283 0.1972245 -0.076228686 -0.034363404 -0.09636911
-0.07953964 0.07009453 -0.03593396 0.040307753 0.008639593 0.14793463 0.017843544 0.08557099
-0.06537112 -0.089183725 0.023983585 0.106029704 -0.06696108 0.06128941 0.03214495 -0.050046347
-0.004606295 0.03422418 -0.01644699 -0.05498025 -0.029307172 0.022448225 0.056522273 -0.17229457
-0.13930747 -0.105224565 -0.0019615863 -0.00801849 0.013865941 -0.05439127 0.03838718 -0.029049352
-0.11519592 -0.084185064 0.03370358 0.09275986 -0.08754366 0.101942345 0.029729314 -0.029466242
0.083105795 0.017234715 0.0062107826 0.057092994 -0.17941965 -0.05096798 0.071783796 -0.002143697
-0.17141877 -0.21824251 -0.22922811 0.0063437996 -0.087628625 -0.11024178 -0.13664834 0.06408713
-0.027575381

conv1.bias f4 [3]
00000000: 179e c93b 8a34 40be 0ee0 8a3d
0.006152879 -0.18770042 0.06781016

conv2.weight f4 [3, 3, 5, 5]
00000000: ba3a d43d 59ee 57bd b5b0 9ebb 5cba 193c
00000010: 1d3b 303e 7002 31bd 7f02 43bd ca96 af3d
00000020: 9cad 013e 8af3 53bd 08c1 1abc f912 c23d
00000030: de10 1d3d e84f 11bd 9d33 bd3d c0ed 993d
00000040: ea2d 1a3d fe6b 533d fe1c b0bd e189 a6bd
00000050: f383 edbd ab4d a4bd 0fcc 6cbc 0614 2e3d
00000060: 9dc7 f8bc 258b ddbd d2df 353d ce50 eebd
00000070: 111a a8bd 323f 053d b082 0cbe df73 95bd
00000080: 1e3d 03be e5e0 a93c d3f1 883d 37eb dcbd
00000090: 8f36 17bd 7f33 1dbe 343e 30bd 38a5 96bd
000000a0: 28b3 f1bd c42b d7bd dbed d4bd 51b8 71bd
000000b0: 0c49 3e3d b1f9 2cbe 273a 02be 4c33 f0bd
000000c0: 30fe 003d eeb5 03bd 127e 46be 0fb5 9cbd
000000d0: e32c 9dbd 1e0d 3fbe 368d 31be cf96 8fbe
000000e0: 0148 11be d5b6 1ebe 5181 0ebd 3b69 27be
000000f0: f844 15be 89d8 bc3d 07c2 41bd d6a4 4dbd
00000100: 7d78 663c 3de9 33be cd03 42bd 493f 26be
00000110: a9e6 05be 24ca 7cbe 9835 cabe 176a 45be
00000120: 3636 88be 3ff0 19be 1fd0 68be 9270 d5bc
00000130: 1ed0 50bd fc94 2f3c 7e99 5f3d 2fab 47bd
00000140: 2ccd 08be 0789 f2bd eb77 273d e802 713d
00000150: 0e05 373d 0710 133d 2912 36bd 021e dc3c
00000160: 965e 9d3d 7401 2e3d 91a8 953d 73df b3bd
00000170: b237 ecbd 3d49 7cbd 853b 113d 1580 59bd
00000180: 35c9 913c cf09 713d 5dde d33d 7a57 4d3d
00000190: 67ae 323c b20f 1cbc 1a21 8b3c 6e95 b53d
000001a0: 8d9a 8b3d fcac d03c 898e b23c 48ad de3c
000001b0: 0829 173d dcdf ac3d 7382 9a3c ff95 f0bd
000001c0: dc11 193b 14d2 2cbd 02d0 943d 1634 c13d
000001d0: 0e3b 8f39 4ef9 a5bd 4092 8d3d df2a 93bc
000001e0: 5d2a 843d 5a7b 32bd 8730 40bd dbba a53b
000001f0: 327d a9bd a4c1 a63c 6414 70bd 36cb 5b3d
00000200: 9121 a1bd 80b8 a53c eba7 a0bd 0459 b4bd
00000210: c2d6 c43d d8e8 ae3d c59d d6bd b3d4 8abd
00000220: 0872 45bd a6af 733d e27c b1bc 55e8 813d
00000230: a323 aebc d2f4 ab3d fb44 4d3d 7348 b6bd
00000240: ac11 663b 49e7 92bd 1419 aabd 8c77 c73c
00000250: c85b eebd 867b 21be 8112 9d3d 68a0 c53d
00000260: 076e 83bd 82f9 5ebd a3a1 283d 4461 633d
00000270: ab7f 9b3d 9e97 dbbd 6110 2e3d dfa8 b83c
00000280: 86f4 febd 1d5e a63d a46a e5bc 413e d3bc
00000290: 624e 19bd 96bf 0d3d b69a d53c f7b7 c0bd
000002a0: 4299 123d d2db 09bd 05db cebd 32f9 103c
000002b0: 26eb e0bd 533f cabb e3a1 dd3d 7357 5538
000002c0: 1731 8d3c ae8f 333d 9827 17bc d04e 663d
000002d0: d932 04be 4b94 e9bd e71c 41bd 8398 1dbd
000002e0: 66a5 c33c 4a61 1d3d bfaa 2dbc 9832 13be
000002f0: bacf 543c 974b 813d 9d0c eabd 3c39 13be
00000300: dc27 b2bc 58ae 413d b6e9 acbd ca35 c5bd
00000310: 5ca1 193d 307a c1bd f660 8d3c 0e16 68bd
00000320: 1e98 25be 7671 d1b9 c8f2 943b ef52 743c
00000330: e8c6 893d 8722 9a3d ef3f 51bd 5e69 573c
00000340: 07ab 803d b3c0 ddbb 47d8 efbc d56e 0fbd
00000350: 19fb e6bb d31d 163c 8854 87bd c32d e5bd
00000360: a478 533d 2bf1 b23d ab45 babd f587 74bc
00000370: 367f 98bd 8faa 623d 9de8 05bd f97d 3f3d
00000380: 9072 83bd
0.10362764 -0.05271754 -0.0048428425 0.00938281 0.1721005 -0.043215215 -0.047609802 0.085736826
0.12663883 -0.05174593 -0.009445436 0.09476275 0.038346164 -0.035476595 0.0923836 0.0751605
0.037641443 0.05161666 -0.0859928 -0.08131767 -0.11597433 -0.080226265 -0.014452948 0.042499565
-0.03036862 -0.10817555 0.044402905 -0.11636506 -0.08208097 0.03253097 -0.13721728 -0.07297491
-0.12816283 0.02073712 0.06686749 -0.10787051 -0.036917266 -0.15351675 -0.04302807 -0.07355732
-0.118017495 -0.105063945 -0.1039693 -0.05901367 0.04645638 -0.16892125 -0.12717496 -0.11728534
0.031492412 -0.032155924 -0.1938403 -0.07651722 -0.07674577 -0.18657348 -0.17339024 -0.28044745
-0.14187624 -0.15499432 -0.034791294 -0.16348736 -0.1457709 0.09220988 -0.04730418 -0.050206028
0.014066813 -0.17569442 -0.047366906 -0.16235079 -0.13076271 -0.24686486 -0.39494014 -0.19278751
-0.2660386 -0.15033053 -0.22735642 -0.026054654 -0.050979726 0.010716673 0.05458974 -0.048747238
-0.13359517 -0.11842542 0.040885847 0.058840662 0.044682555 0.035903957 -0.044450913 0.026869778
0.076840565 0.042481855 0.07307542 -0.08782854 -0.115340605 -0.061593283 0.035457153 -0.053100664
0.017796138 0.058847245 0.10345147 0.050132252 0.010905839 -0.009525226 0.016983557 0.08866392
0.068165876 0.02547311 0.021796482 0.027182236 0.036904365 0.08441135 0.018861031 -0.117473595
0.0023356592 -0.042192534 0.07266237 0.09433763 0.00027319085 -0.08104192 0.069126606 -0.017964778
0.06453393 -0.04357467 -0.04692128 0.0050576753 -0.08275832 0.020356007 -0.058613196 0.053660594
-0.078677304 0.020229578 -0.07844528 -0.08806041 0.09611274 0.08540505 -0.10479311 -0.067788504
-0.04820445 0.059493683 -0.021665994 0.06343142 -0.021257227 0.08396305 0.050114613 -0.08900537
0.0035105748 -0.071730204 -0.083055645 0.024348997 -0.116386 -0.15769777 0.07669545 0.09649736
-0.064174704 -0.054437168 0.041169774 0.05551268 0.0759271 -0.10722278 0.04249609 0.022541462
-0.12448983 0.081234194 -0.028004952 -0.02578652 -0.037428267 0.03460654 0.026074748 -0.094100885
0.03579069 -0.033656903 -0.101003684 0.008848475 -0.10982351 -0.0061720996 0.10821893 5.08646e-05
0.017235322 0.043838196 -0.0092257485 0.056227505 -0.12910022 -0.11405238 -0.047146704 -0.038475525
0.023882579 0.03842286 -0.010599791 -0.14374769 0.012988979 0.06313246 -0.11428187 -0.14377302
-0.021747522 0.047285408 -0.08443014 -0.096294 0.0375074 -0.094471335 0.017258149 -0.056661658
-0.1617131 -0.0003994812 0.0045455433 0.014912351 0.067273915 0.07526117 -0.051086362 0.01314768
0.06282621 -0.0067673563 -0.029277934 -0.035017807 -0.007048976 0.009162384 -0.0660792 -0.11190369
0.051628724 0.087374054 -0.09095319 -0.014924993 -0.074461386 0.05533844 -0.03269254 0.046750996
-0.064183354

conv2.bias f4 [3]
00000000: 89dc 423d e606 053e beb7 413e
0.0475736 0.12990913 0.18917748

conv3.weight f4 [3, 6, 5, 5]
00000000: dd64 653d d83e 22bd 0821 93bd 67c5 003e
00000010: 3160 13be 8797 ccbd a8f4 f3bd 724f a1bd
00000020: 4793 15be ef02 66be c9b8 483d 113a debb
00000030: b1a3 94bd 5ac8 9b3c 0445 3ebe 22ef 0a3e
00000040: b517 e23c 56da d53c a85d 773c 0081 cd3c
00000050: 77b0 aebb 8f55 ab3c 4357 5dbc 5e25 adbc
00000060: bfe4 95bd 6826 c8bf 38ab 0bbf 187e bcbd
00000070: d2bb 6fbe 4406 fcbe b4f7 07bf 76f4 983e
00000080: 78e3 073e a301 4dbf 24d7 d5be e42d a4bf
00000090: a2f2 a33e f98a c63f b1dd 773f 1055 d4bf
000000a0: c643 42bf 2331 83be 3d94 90be 56ab 4dbf
000000b0: a05a 07bf 765c 55bf 1633 833e 0a4f f13e
000000c0: a2b7 53bd 9f58 54bf ae55 78bc d5fc 693d
000000d0: f5c0 683d ebf4 963d e91c e83d 2852 02be
000000e0: 5300 1dbe dc5d 19bd e1b2 f03b 5b7d afbd
000000f0: 0050 1c3e 5cfb d33d 62d4 313e c11d 193e
00000100: dbb5 203e c446 283d 4918 8cbd cc33 eabd
00000110: d878 97bc 4eec 4cbe 5d38 4d3d 3d8f 75bd
00000120: 55e7 673d 7df3 ccbb 8e25 b9bc 28c6 82bd
00000130: e4a9 d2bd 7e06 4cbd be51 0cbd 8352 b4be
00000140: 1961 99ba 6d9d e9bd a1d8 97bd 38ba 34be
00000150: 904b cabe 613e e93d 507f be3c cbba 783d
00000160: a2c3 d73d e369 00be c87e ac3d 3b63 0f3d
00000170: 5e82 d73d 8303 fa3c 6ab0 04be ca42 a83d
00000180: d092 983d 5c1f 123e 2ae3 023d 68a7 2bbc
00000190: aa99 14bd 5547 37be aa84 fbbd bde0 3cbe
000001a0: eaa3 e1be f5f5 a0bd e6c7 8ebd 7d97 91bd
000001b0: 39db 013d e23f cebd bd03 453e 5c28 583d
000001c0: 8fd0 0e3e f347 f23d 17dd af3d 5484 a33c
000001d0: 4fb6 74bd e1e3 273c e7a8 b83d 5697 2dbd
000001e0: e1fd 36bd 6cc3 d6bd 2228 b03d 1ec0 d93d
000001f0: 9925 523d a21c bbbd b0bd f2bd d969 5abc
00000200: 8a19 84be 86fa f1be 113b 103d aa49 df3c
00000210: 06b5 633d ecdf f5bd 6c98 87be 760f 633e
00000220: 75e4 943e e275 ab3e 470c 253e b46f e8bc
00000230: 8a82 0dbd dd90 9a3d 37fe d03c e479 4bbe
00000240: d2e6 92be c65a 29be b432 3bbd 685b e4bd
00000250: dd63 91be be47 9fbe 2ff2 80bd 2a44 e9bd
00000260: 0641 e1bc 7c61 b8bd 2dfe 09bc fc86 a8bd
00000270: d33d f5bd e902 b93c c884 ccbd f168 a1bd
00000280: 98d7 91bd 01a4 9bbd 786a 09bd d2a1 7bbd
00000290: d993 b6bc 80a1 85bc bde6 b3bd 1513 b1bd
000002a0: 96b1 e33c 14c0 c13b 0a5c 663d 4f2c 54bc
000002b0: cd99 ccbc b7b1 52bd b50c 86bd 8706 5c3d
000002c0: 8c66 8fbc 8ca4 973d 6d20 72bd 55a2 55bd
000002d0: cd2f 533d c19c 863d f93d 703d 165c fcba
000002e0: 114d ef3c 1a08 e33c 66c9 86bd d6ae 29bd
000002f0: 2746 6cbd 7379 a03d c477 a0bd bb33 a4bd
00000300: 18ec cb3c 406b 2cbc c280 40bd 36ce f4bc
00000310: e217 9f3d c7c2 7dbc e018 6cbd e39e 57bc
00000320: 51a6 643c b67c bb3d edee a93b ef31 6fbd
00000330: 9068 ae3c 52c3 cb3d ab99 05bd ea27 c23d
00000340: 276a 0fbd be66 80bd 044d 0f3c 5c0a c5bc
00000350: 67ff 6cbd 3370 173d 97f5 893d c5ee db3b
00000360: 97e5 793c d20f 283d fac4 af3d e1a2 583d
00000370: c903 c2bc faed 04bd b349 353d 2792 e33b
00000380: 732e fc3a fa61 493d cb41 f53b 873a 4f3d
00000390: 7f41 8ebd dfb1 443d 1bd5 9f3b 0c60 64bb
000003a0: 272f b2bd 8743 db3b de26 41bc bb3c 65bd
000003b0: 4ded 953c 7a22 9dbd 6254 a93c 61fb c3bd
000003c0: b4ea 863c 626a a3bd 23d2 b03c e083 49bd
000003d0: 11b8 d2bd a061 1ebd 45d5 58bc 15e1 cfbd
000003e0: b942 543d db7e a3bd 8916 c13c c52f 233d
000003f0: e3d0 0e3d 5a94 ebba 3889 aabd 426d d2bd
0.056004394 -0.039610714 -0.071840346 0.12575303 -0.14392163 -0.09989839 -0.11911899 -0.07876481
-0.14606963 -0.22462057 0.04900435 -0.0067818244 -0.07257784 0.019016434 -0.18581015 0.13567784
0.027599195 0.026105087 0.015098013 0.025085926 -0.005331095 0.020914821 -0.013509574 -0.021135982
-0.073190205 -1.5636721 -0.54558134 -0.09203738 -0.23411492 -0.4922353 -0.5311234 0.2987401
0.13270366 -0.8008062 -0.41765702 -1.2826505 0.32021052 1.5511161 0.9682265 -1.6588459
-0.75884664 -0.25623426 -0.28238097 -0.8033956 -0.5287266 -0.8334421 0.25624913 0.47130615
-0.051688798 -0.82947725 -0.015157146 0.057125885 0.056824643 0.07370933 0.11333639 -0.12726653
-0.15332155 -0.037443027 0.007345543 -0.085688315 0.15264893 0.10350677 0.17366174 0.14952756
0.15694372 0.041083112 -0.068405695 -0.11435661 -0.01849024 -0.20012018 0.05010258 -0.059951056
0.0566171 -0.006254612 -0.022600915 -0.063854516 -0.1028631 -0.04981088 -0.034257643 -0.352192
-0.0011701911 -0.1140698 -0.074143656 -0.17649162 -0.39510775 0.11388851 0.023254067 0.060725015
0.10535361 -0.12540393 0.08422619 0.035006743 0.105229124 0.030519253 -0.12957922 0.08215864
0.07449877 0.14269775 0.03195492 -0.0104769245 -0.036279358 -0.17898305 -0.12281163 -0.18445106
-0.4407037 -0.078594126 -0.06971721 -0.07108972 0.031703208 -0.100707784 0.19239707 0.052772865
0.13946746 0.118301295 0.085870914 0.01996056 -0.059744176 0.010247202 0.090165906 -0.042380653
-0.04467571 -0.104864925 0.08601405 0.106323466 0.051305387 -0.09136321 -0.11852586 -0.0133309
-0.25800735 -0.47261447 0.03521258 0.027256805 0.05559256 -0.120056 -0.26483476 0.22173867
0.2908055 0.33488375 0.16117965 -0.028373577 -0.03454832 0.07547162 0.025511844 -0.19870716
-0.28691727 -0.16538534 -0.04570265 -0.11150247 -0.28396502 -0.31109422 -0.06296193 -0.113899544
-0.027496826 -0.09002969 -0.008422417 -0.08228871 -0.11974683 0.022584395 -0.099862635 -0.07881344
-0.07121199 -0.07599641 -0.033548802 -0.06143362 -0.022287296 -0.01631236 -0.08784244 -0.08646218
0.02779464 0.00591279 0.05624012 -0.012950017 -0.024975682 -0.051439013 -0.065453924 0.053717162
-0.017504953 0.07404432 -0.059112955 -0.052156765 0.05155926 0.06572867 0.05865285 -0.0019253518
0.029211553 0.027713824 -0.065813825 -0.041426502 -0.05768409 0.078356646 -0.078353435 -0.08017679
0.024892852 -0.010523617 -0.046997793 -0.029883485 0.07768227 -0.015488333 -0.05764091 -0.01316044
0.013955669 0.09154646 0.005185953 -0.05839723 0.021290094 0.09949364 -0.032617252 0.09480269
-0.035013344 -0.062695965 0.008746389 -0.024052791 -0.05786076 0.036972236 0.06736296 0.006711813
0.015252492 0.041030712 0.08582492 0.05288971 -0.023683446 -0.032453515 0.04425974 0.006944913
0.0019239917 0.049165703 0.00748465 0.050592925 -0.06946086 0.048021194 0.004877699 -0.0034847287
-0.087004 0.0066913995 -0.011789052 -0.05596612 0.01830163 -0.076725915 0.02067012 -0.09569431
0.016469337 -0.07979275 0.021584576 -0.04919803 -0.10289014 -0.03866732 -0.013234441 -0.10150353
0.051821444 -0.0798318 0.023570316 0.03984048 0.03486718 -0.0017973289 -0.08326954 -0.102747455

conv3.bias f4 [3]
00000000: db88 403e e734 a5bd 0a2d 523d
0.18802206 -0.08066731 0.051312484

conv4.weight f4 [3, 6, 5, 5]
00000000: 0b0a b2bd a8da 15bd e6cc 02bd 0d10 493d
00000010: 08a3 4abd bfcd 78bd 0a70 873d bc9e c0bc
00000020: 9692 8a3d d7df a8bd fecf 66bc 2929 a6bd
00000030: 5bb4 e53d 8df0 f23c 9ee9 803d 1d14 02be
00000040: 2148 acbd e2c2 393c 070b 943d f43e 67bd
00000050: 6805 c1bd 6f17 fe3b 3993 c5bb 3aed ebbc
00000060: 2047 893b cf68 01be 35e7 23bc 724c 953c
00000070: 5d41 a9bd fb70 8c3c 50f7 06ba 8eaa 21bd
00000080: 3694 883d b9b1 363d fc12 92bd fc17 4c3b
00000090: b56f 2d3d 2149 d8bc c1ff 443d c2f6 f7bc
000000a0: f3a5 b73c 82c5 7d3c b66c b93d 3b13 03bd
000000b0: f1d6 2e3c 1270 19bd 159c 173d 7b81 30bc
000000c0: 6fd5 d13c 758f 213d ae53 123d a115 b8bc
000000d0: 8190 a63d 2662 fdbc 6463 473c 374a c1bc
000000e0: 7e47 8c3d 9d83 e83d 785c be3d 709b e2ba
000000f0: 0317 453d b205 2ebc ddcb c23d 7dbf b8bb
00000100: 07e5 6bbc 197e 84bd 54ef 493d 625a 4bbd
00000110: d7a1 a23c 4e85 853d 5e9f ae3c 26c1 92bd
00000120: 5d39 483c 3512 7c3d 9dbf 723d 9933 21be
00000130: b9f0 553e fcc7 db3e f7eb 3cbe c8f5 a5be
00000140: 1807 d53d 23f9 e93e 7cae 1d3f 262c b5bc
00000150: 4df3 ffbd c8d2 c83e f17d 183f e5d0 133f
00000160: c217 5d3e f0dc f8ba 3121 54be f0d7 133e
00000170: 56d5 bf3e dc5f 95be 37a2 95be 5d0c 4e3e
00000180: 7fa1 e93e 080b 023f 5dd9 c23d c7ab 923d
00000190: 092d 8c3d 7ab5 1dbd 7068 2d3d bb46 a1bd
000001a0: 6685 0ebd 6ae9 8f3d 1be1 ed3c ef01 80bd
000001b0: ab06 473b e8dd 69bc 7b92 edbc 61e9 7aba
000001c0: 97d8 63bd ecd7 883d b73a 4fbd ee59 92bd
000001d0: 2190 bcbc 0066 72bd 9c18 58bd e50c 613b
000001e0: bf7e a83d 0330 9f3c 3dc4 8d3b 1d49 48bc
000001f0: af56 febc 9efd 3e3d 4462 4b3d 4561 643d
00000200: f2c0 bc3d 0a62 d83d facb 89bc a717 80bd
00000210: 4aff cf3c 6ae2 b6bb 5247 463d c7a3 9cbd
00000220: e323 a63c 79b0 633d caac f43c e846 0b3d
00000230: 4ebe b2bc 2264 dfbd 75bc d73b b4d6 87bb
00000240: 42e6 2b3d c7b5 44be 41c5 3fbe 1358 62bd
00000250: caf3 17be 0e54 81bd e232 e23d 22f9 16bd
00000260: a39d b93d 7be6 96bc 4d73 713d fca8 553d
00000270: 5032 25bd a8f3 1b3b 2cbb 71bc 94c8 1c3d
00000280: 3930 a1bc 0890 6a3d 82aa 11bc f5a9 a33b
00000290: ec91 47bd c617 35bc 9ab0 aebc 965b 53bd
000002a0: 22ff 7c3d 6c91 69bc d2bb d53c aba6 5a3d
000002b0: 0610 bb3d 935f 51bd 0a99 e3bc 407b 52bd
000002c0: 37ac d0bc dcb3 2bbd 7d3f 1d3d e2c7 bd3d
000002d0: 090e 95bc 2384 76bd 3445 ad3d 17b1 3fbd
000002e0: df36 56bd bc03 8fbd f2b9 29bd a13e 94bd
000002f0: 95e7 2fbd d2d9 a13d 5313 36bd f532 343d
00000300: 95c6 1dbc b1bc 26bd 4c94 fb3d 4091 c03c
00000310: 5b1d ba3c 57c1 6fbc 93cf ea3d b110 053e
00000320: b6c5 7abd f7cf 88bc a28e 103e b259 033e
00000330: ac1a f83d 3e88 58bc fcfb ab3c acb1 033e
00000340: 4739 c73c 8779 113e 1f25 14bd 733a 053d
00000350: 5224 923d f335 073b 72f5 043e ecc5 283d
00000360: 7c54 6dbd b697 69bc d0c1 973c 9671 783d
00000370: b609 0bbd 6f8f 623d e334 21bd 6afd 123d
00000380: 31f5 aabb ac7c a03d ce28 363d c9e5 7d3e
00000390: 49b9 033e 801d d6bd b8df 94bd 30bb 58bd
000003a0: a1f5 373e 94f2 a03d 6df2 94bd d11e 8b3e
000003b0: 1531 9b3e 9ecf a93e ba99 a73e dadc 1e3e
000003c0: cc54 0dbc 7499 5fbc a363 223e b72c 4a3c
000003d0: c5cd 1bbd ab9d a03d 77b7 ce3d a0bb eb3d
000003e0: e06f 883d a759 44bd 79d3 0a3d 5acd 6e3d
000003f0: c681 493d d612 96bd c60a 20bd 231e b0bd
-0.08693322 -0.03658548 -0.031933688 0.049087573 -0.049471885 -0.06074309 0.06613167 -0.02351319
0.0676624 -0.08245819 -0.014087675 -0.081133194 0.11216041 0.02965572 0.06294559 -0.12702985
-0.08412195 0.011337968 0.07228666 -0.05645652 -0.09424859 0.0077542583 -0.006029513 -0.028799642
0.004189387 -0.12637638 -0.0100038545 0.018224929 -0.0826442 0.017143717 -0.0005148547 -0.039469294
0.06668894 0.044603083 -0.07132527 0.0031142225 0.04234286 -0.026402058 0.04809547 -0.03026903
0.022417998 0.015488984 0.09053938 -0.03200076 0.010671363 -0.037460394 0.037014086 -0.010773058
0.025614468 0.039443452 0.035724334 -0.022471251 0.08133031 -0.03093059 0.012169693 -0.023594959
0.068495736 0.11353228 0.09294981 -0.0017288756 0.04811765 -0.010621475 0.0951154 -0.0056380616
-0.014397866 -0.06469364 0.049300507 -0.049646743 0.019852562 0.065195665 0.021316227 -0.071657464
0.012220708 0.0615408 0.059264768 -0.15742339 0.2089261 0.42926013 -0.18449388 -0.3241408
0.10401744 0.4569789 0.6159437 -0.022115778 -0.12497578 0.39223313 0.5956717 0.5774062
0.21591094 -0.0018986743 -0.20715787 0.14437842 0.3746745 -0.29174697 -0.29225323 0.20121904
0.45631024 0.5079808 0.09514115 0.0716167 0.06844527 -0.038503148 0.042335927 -0.07874819
-0.034795187 0.07026942 0.029038003 -0.06250369 0.0030368965 -0.014274098 -0.029000511 -0.00095715193
-0.055626478 0.06681809 -0.050593104 -0.07146059 -0.023017945 -0.059179306 -0.052757844 0.003433996
0.082273 0.019432073 0.004326372 -0.012224463 -0.031047193 0.046628587 0.04965426 0.055756826
0.09216489 0.105655745 -0.016820896 -0.06254511 0.025390286 -0.00558119 0.04840786 -0.076484255
0.020280784 0.05558822 0.029867548 0.03400317 -0.02181926 -0.10907771 0.006583745 -0.0041454677
0.041967638 -0.19209968 -0.1872759 -0.055259775 -0.14839092 -0.0631486 0.110448614 -0.036858685
0.0906327 -0.018420449 0.05894785 0.05216311 -0.040331185 0.0023796353 -0.014754098 0.038277224
-0.019676315 0.057266265 -0.00889075 0.0049946257 -0.048723146 -0.011053031 -0.021324445 -0.051601015
0.06176675 -0.014255863 0.026090536 0.053381603 0.091339156 -0.051116537 -0.027782936 -0.05138707
-0.025472743 -0.041919574 0.038390625 0.0926664 -0.018195169 -0.06018461 0.08460465 -0.046799745
-0.052298423 -0.06983134 -0.041437097 -0.07238508 -0.042945463 0.07902874 -0.044452023 0.04399391
-0.009629865 -0.040707294 0.12284145 0.02350676 0.022719076 -0.014633498 0.11465373 0.12994649
-0.061223708 -0.016700728 0.1411691 0.12827185 0.12114462 -0.013216076 0.020994179 0.12860745
0.024319304 0.14206515 -0.036168214 0.032526445 0.07135834 0.0020631521 0.12984255 0.041204378
-0.0579419 -0.014257362 0.018525034 0.0606552 -0.033944808 0.05531257 -0.039357077 0.035886206
-0.0052172174 0.07836279 0.044472508 0.24794687 0.1286365 -0.104548454 -0.072692335 -0.05291289
0.17964794 0.07858768 -0.072728015 0.2717195 0.30310884 0.33166212 0.32734472 0.15513936
-0.008626174 -0.013647426 0.15858321 0.012339762 -0.038038034 0.07842573 0.10093587 0.11510396
0.066619635 -0.04793706 0.033893082 0.058301307 0.049196027 -0.073278114 -0.039072774 -0.08599498

conv4.bias f4 [3]
00000000: e9be 143e 4bf1 233e 3003 8c3d
0.14525951 0.16010015 0.068365455

conv5.weight f4 [3, 9, 5, 5]
00000000: 8259 d0bc 6faa 9b3c 9046 563d c6ba 293d
00000010: e769 d2bc dcc3 6eba 9714 983c 8966 d43c
00000020: faac 81bb fce7 ddbc 7494 823d 9e5b 6c3d
00000030: 3e63 78bc fdc1 8c3d 8a5f b83d 696d 483b
00000040: c082 0cbb afb7 9e3d 2932 093d 0d2c 973d
00000050: ee4c 513d a9ca 503d 1540 4d3d 7806 8a3d
00000060: a597 33ba e386 9e3c 4d8e da3c 11fc 0c3d
00000070: 6c68 24bd 4250 85bd 8f18 563c ecf0 d43c
00000080: 2ed9 80bd 5c93 363d 5599 e83c b180 0cbd
00000090: 259d 3b3d 809a 4f3d 1385 1ebd 23ca 363d
000000a0: 84ed 373b 5828 563c 0d1e 183d 2f8f 563d
000000b0: d65b 5e3d 748f 6dbd c851 8dbc 1588 49bc
000000c0: 5874 0b3d 9b5c 81bd fc53 9ebc 9c59 8f3c
000000d0: 5d8d b73c c338 39bc ab65 543d 66a8 42bc
000000e0: f94b 51bc 5e88 aa3d 8010 abbc 4169 a43c
000000f0: 0400 3c3d 531f adbc 5eee 623d 89fb 5ebd
00000100: be53 413b a027 39bd b8dc 0ebd 886d bf3c
00000110: 78ed ddbc 80e7 a5bb 2e9c fabb 0ac2 84bb
00000120: 37ca 593d 0f9e c9bc c957 0abd e12d d33d
00000130: ffe6 1c3c 0976 303e 3805 073d 2b18 8d3c
00000140: f924 9a3d 9064 1c3d d8f5 cb3d 582a fc3d
00000150: f5b1 913d ef40 0b3d cf98 b63d 4048 3a3e
00000160: ace9 a83d 92e4 9b3d 4b05 31bd 31d5 c83c
00000170: e9f0 ca3d 85cd cb3d 13a9 97bb dfd8 36bd
00000180: 817a 753c d236 233d 2ad2 be3d ea30 f53c
00000190: cda7 333c 2f8e cbbb 284c ec3c db99 163d
000001a0: 806c e73c 0512 3b3c 3b8c 9d3b 99b7 cf3d
000001b0: fe1c 0b3d 57a6 8bb9 0d89 d4bc b82f 31bd
000001c0: fb76 bb3d 1aa3 093d 1c04 173d 76a5 903c
000001d0: 69c8 b73c a4ce 6f3d b6c0 9f3d 441a aa3d
000001e0: a134 4c3d 8243 b23c 22d9 283d c4fb bcba
000001f0: 96cc d83d 3db4 c13d d83d af3d e0ef a23d
00000200: 26f4 d53c 859c d23d 7e4b f33d 2017 193d
00000210: fea5 f93d e0cd 0f3e 6ab1 1e3e 8193 2c3d
00000220: a476 353d dff9 e03d f0a9 c23d b00d a13d
00000230: fe18 473d 6fa8 bb3d b600 953d e22d 2e3d
00000240: b0de d63d c87b 293c 438f 6e3d 583b c93d
00000250: 1753 c2ba cda6 f03d f5dd ba3c a476 56bc
00000260: 3411 853d ba97 77bc 6035 06bb 104e 64bd
00000270: 1562 97ba 22e7 b33c ad5f df3c 0cd1 23bc
00000280: e1d1 80bd fb0d b63d 8001 1a3e 4a70 ca3c
00000290: e804 5fbc 94cd ee3c 7bea aa3c 2779 a93d
000002a0: 14a5 4ebb e033 b43c 882a 96bc dbbb a93c
000002b0: 50cd 063e 72df 9b3d 1d58 22bc e217 e63c
000002c0: 0041 e63c f685 a83d 0796 cd3d 5db6 cc3d
000002d0: 3e62 23bd eb13 5e3d ea4b c03d 64b0 a03c
000002e0: 7cdb ab3d 3163 113d 7606 babc f43c 103e
000002f0: 79d0 e33d 4157 1c3d 0f12 703c c59a 21bd
00000300: a9bc d13d 6388 c83c b9f3 bb3d 1004 0bbd
00000310: 0a26 4d3a be1c 7e3d 6586 aa3c fbc6 ca3d
00000320: 8b18 79bd 9d0f 23bd 7849 21bd 501b 8bbc
00000330: f4e4 b83d e688 debd 6255 9bbd 240e 763c
00000340: 47d3 573c ef2f 893d 04d5 33bd a7f9 efbc
00000350: 6c86 b33d 12d5 853d 8441 293e 8293 533b
00000360: a77e 493c 1061 433d c220 7d3d 442e fd3c
00000370: a028 debd bf8e 86bd 7a4d 103d 69ad 88bd
00000380: 14b4 53bc cfec ef3c 548b 9b3d 192a 7b3c
00000390: f2b5 af3c b3c4 84bc adae bd3b 0686 5bbd
000003a0: ebee 333d 5e35 aa3d a2b4 233d db2e 373d
000003b0: 2982 2cbb cbb0 7c3d 596b 2a3d 5f52 883d
000003c0: 2db0 313d 20d7 a6bc 2b53 6b3d 4e54 bcbb
000003d0: 3d73 b43d b979 3b3d 85f8 903d fd45 5b3d
000003e0: 494f b93d 4349 5abc 6155 aa3b e9d3 63bd
000003f0: f8e8 01bc 77ed 513c 99f0 3f3c c77b 3cbd
-0.025433306 0.019002168 0.052313387 0.041437887 -0.025685264 -0.0009108165 0.018564506 0.025927799
-0.003957388 -0.027088158 0.063759714 0.05770456 -0.01516038 0.06872938 0.09002598 0.0030582792
-0.0021440238 0.077498786 0.033495102 0.07381449 0.051098756 0.05097452 0.05010994 0.06739515
-0.0006850905 0.019351428 0.026679182 0.034420077 -0.040138647 -0.065094486 0.013067379 0.025993787
-0.06291424 0.044574127 0.028393427 -0.034302417 0.04580416 0.050684452 -0.03870113 0.044626366
0.0028065154 0.013071142 0.037138034 0.052382644 0.0542868 -0.057998136 -0.01725091 -0.012300511
0.0340465 -0.06316491 -0.019327156 0.017498784 0.022406274 -0.011305037 0.05185477 -0.01188097
-0.012774461 0.08326791 -0.020881891 0.02006972 0.045898452 -0.0211331 0.055403106 -0.0544391
0.0029499377 -0.045203805 -0.034878463 0.023367658 -0.027090773 -0.0050629973 -0.0076480126 -0.0040514516
0.053171363 -0.024611501 -0.033775125 0.10311485 0.009576558 0.17232527 0.03296396 0.017223438
0.07526583 0.03818184 0.09959 0.12312764 0.07114021 0.033997472 0.08915865 0.18191624
0.082476944 0.07611956 -0.04321794 0.02451572 0.09909231 0.09951309 -0.0046283095 -0.04464042
0.0149828205 0.039847203 0.09317429 0.02993055 0.0109653 -0.006212018 0.028844908 0.03676782
0.028249979 0.01141787 0.0048079765 0.1014244 0.033963196 -0.0002663608 -0.025944257 -0.0432584
0.09153553 0.03360281 0.036869153 0.017657023 0.02243443 0.058546677 0.078004286 0.08305791
0.04985488 0.021760706 0.0412227 -0.0014418294 0.10585897 0.09458206 0.08556718 0.07955909
0.026117396 0.1028376 0.11879633 0.03737557 0.121898636 0.14043379 0.15497366 0.04213286
0.044302598 0.10985159 0.09505069 0.07863939 0.04860782 0.091629855 0.07275526 0.042524226
0.10491693 0.010344453 0.058242094 0.09825772 -0.0014825788 0.11750565 0.022810915 -0.01308981
0.06497422 -0.015111858 -0.0020478591 -0.05573851 -0.0011549616 0.021960799 0.027267301 -0.009998571
-0.06290031 0.08889385 0.15039635 0.024711747 -0.01361201 0.029150762 0.020863762 0.08275061
-0.00315315 0.021997392 -0.018330827 0.02071946 0.13164258 0.07610978 -0.009908703 0.02808756
0.028107166 0.08228676 0.10038381 0.099957205 -0.039888613 0.054218214 0.093894795 0.01961536
0.08391473 0.035494987 -0.022708159 0.14085752 0.111237474 0.03816915 0.014652743 -0.03945424
0.10241062 0.024479097 0.09177346 -0.03393942 0.00078257977 0.06203913 0.020816037 0.09901234
-0.06081442 -0.03980981 -0.039376706 -0.016980797 0.09028044 -0.10865955 -0.07584645 0.01501802
0.013172931 0.06698596 -0.04390432 -0.029293848 0.08765873 0.065347806 0.16528898 0.0032283966
0.012298263 0.047699988 0.06179882 0.03090585 -0.10847592 -0.065701954 0.035230137 -0.066737
-0.012921352 0.029287724 0.07594934 0.015329861 0.021449063 -0.016207075 0.0057886452 -0.05359461
0.04392902 0.0831096 0.039967187 0.04472242 -0.0026322699 0.06169204 0.04160628 0.06656336
0.043380905 -0.020366251 0.057452362 -0.0057473546 0.088110425 0.04577038 0.07078651 0.053533543
0.090483256 -0.013323131 0.0051981662 -0.055622015 -0.007929079 0.012812964 0.011715078 -0.04601648

conv5.bias f4 [3]
00000000: 2f84 f13d 3c87 053e e6d2 423e
0.1179279 0.13039869 0.19025764
